model/thai_segmenter.onnx (onnx, 364388 bytes, 6 tensors)

model.conv1.bias f4 [128]
0	0xbf71f444	-0.94513345
1	0xbebf27bb	-0.37335
2	0xbef601ae	-0.48048156
3	0xbf170734	-0.58995366
4	0xbf767f27	-0.9628777
5	0xbf3aa078	-0.72901106
6	0xbf35fbda	-0.7108742
7	0x3e8abfba	0.270994
8	0xbd534614	-0.051580504
9	0xbef2506a	-0.47326976
10	0xbed44212	-0.41456658
11	0xbee8400a	-0.45361358
12	0xbf3d2ac8	-0.73893404
13	0xbf694f60	-0.9113674
14	0xbf21cc09	-0.6320196
15	0x3e22bcbe	0.15892312
16	0xbe85edc6	-0.2615797
17	0xbf1137e0	-0.56725883
18	0xbf44c92e	-0.76869476
19	0xbef6bbcc	-0.48190153
20	0xbefdbb3d	-0.49556914
21	0xbf8507cc	-1.0393004
22	0xbf0ac267	-0.54202884
23	0xbf137338	-0.57597685
24	0xbef93ba5	-0.48678318
25	0xbf5d6b91	-0.8649226
26	0xbf56e22d	-0.83938867
27	0xbf369a9e	-0.7132968
28	0xbf509cf0	-0.8148947
29	0xbef0c53e	-0.47025484
30	0xbf5a9342	-0.8538095
31	0xbf417c98	-0.7558074
32	0xbedc1918	-0.42987895
33	0xbf3ffe38	-0.7499728
34	0xbf801304	-1.0005803
35	0xbd5038a4	-0.050835267
36	0xbeb6869d	-0.35649577
37	0xbf183ae4	-0.5946486
38	0xbf52629e	-0.8218173
39	0xbf2d912e	-0.6779965
40	0xbf30d320	-0.6907215
41	0x3e17ed8f	0.14836715
42	0xbed16ed0	-0.40904856
43	0xbe518f30	-0.20464778
44	0xbf45bbd4	-0.7723973
45	0xbeb0ac69	-0.3450654
46	0xbf1ef581	-0.6209336
47	0xbf3e3344	-0.74296975
48	0xbf801681	-1.0006868
49	0xbf2db2d7	-0.6785101
50	0xbf262222	-0.6489583
51	0xbf526d9a	-0.8219849
52	0xbf5491cb	-0.8303496
53	0xbef3ce8f	-0.4761853
54	0xbf72c5fb	-0.94833344
55	0xbebe05c7	-0.37113783
56	0xbf126271	-0.5718146
57	0xbf66397e	-0.89931476
58	0xbf2fad67	-0.68623966
59	0xbf1924c8	-0.5982175
60	0xbeeee82e	-0.46661514
61	0xbf1e32cb	-0.61796254
62	0xbf19bc4c	-0.60052943
63	0xbf1220ea	-0.5708147
64	0xbee6ab8e	-0.4505276
65	0xbf081928	-0.53163385
66	0xbf19a5a8	-0.60018396
67	0xbf795f8c	-0.9741142
68	0xbeda0b62	-0.4258681
69	0xbe121a2f	-0.14267801
70	0xbfa929fe	-1.321594
71	0xbf1cd2d6	-0.6125921
72	0xbf703b5a	-0.93840563
73	0xbf1d71a9	-0.61501557
74	0xbedb773a	-0.428644
75	0xbde3de7c	-0.1112642
76	0xbf2edd3e	-0.6830634
77	0xbf183de5	-0.59469444
78	0x3f008678	0.50205183
79	0xbf248200	-0.64260864
80	0xbf0ddd0d	-0.5541542
81	0xbf35be66	-0.7099365
82	0xbf5fc037	-0.8740267
83	0xbf452dfd	-0.770233
84	0xbf190534	-0.59773564
85	0xbf33d7e0	-0.70251274
86	0xbf126a59	-0.57193524
87	0xbefd7510	-0.49503374
88	0xbe1be108	-0.15222561
89	0xbf39d6bb	-0.7259328
90	0xbf679adc	-0.9047067
91	0xbf1d0103	-0.6132967
92	0xbf4939bc	-0.7860372
93	0xbebff116	-0.3748862
94	0xbe08bf48	-0.13354218
95	0xbf0e0f43	-0.5549204
96	0xbf57fc68	-0.84369516
97	0xbf26cb54	-0.65154004
98	0xbfcf7837	-1.6208562
99	0xbf412b0e	-0.7545632
100	0xbea8ae20	-0.32945347
101	0xbf1971b6	-0.59939134
102	0xbf3b0850	-0.7305956
103	0xbed62745	-0.41826835
104	0xbf19a43e	-0.6001624
105	0xbeeec958	-0.46637988
106	0xbeb9a930	-0.36261892
107	0xbf0efc42	-0.55853665
108	0x3f634f6d	0.8879307
109	0xbef4ed6e	-0.47837394
110	0xbf380d80	-0.718956
111	0xbf26ba4d	-0.6512802
112	0xbef3259a	-0.47489625
113	0xbed74533	-0.42044982
114	0x3ebb8686	0.3662607
115	0xbf187404	-0.59552026
116	0xbefe3bae	-0.49654907
117	0xbf3c3535	-0.7351869
118	0xbf53f071	-0.8278876
119	0xbf52f371	-0.8240271
120	0xbf0c1844	-0.54724526
121	0xbf1e8848	-0.619267
122	0xbf0ef0a6	-0.5583595
123	0xbefb8d55	-0.49131265
124	0xbf73c5d6	-0.9522375
125	0xbf126a8a	-0.57193816
126	0xbf6276fb	-0.884628
127	0xbf27e4ae	-0.6558331

model.conv2.bias f4 [128]
0	0xbe8ba0bc	-0.27271068
1	0xbe290683	-0.1650639
2	0xbe52da89	-0.20591177
3	0xbdc89014	-0.09793106
4	0x3dcdca60	0.100483656
5	0x3dbc3d0c	0.09191331
6	0xbf74bb6e	-0.95598495
7	0x3d00a578	0.031407803
8	0xbe790612	-0.24318722
9	0x3db340f8	0.08752626
10	0x3dd65cd4	0.10466924
11	0xbd03ef30	-0.03221053
12	0x3e84d58f	0.25944182
13	0x3e46a50e	0.19398901
14	0xbecb3501	-0.39688876
15	0xbe45d278	-0.19318569
16	0x3da23f70	0.07922256
17	0x3dc8f6d0	0.09812701
18	0x3e2679b8	0.1625737
19	0x3e793790	0.24337602
20	0xbbd0c306	-0.006370905
21	0xbee40f7d	-0.44543067
22	0xbc419680	-0.011815667
23	0xbe9ac3a8	-0.302274
24	0x3e09afec	0.13446015
25	0x3e0a23cc	0.13490218
26	0x3db07530	0.08616102
27	0x3d653f80	0.05596876
28	0x3eabad3c	0.33530605
29	0x3c9888d0	0.018619925
30	0x3e04b769	0.1296059
31	0xbd0ab0c8	-0.033859998
32	0xbd063f30	-0.032775104
33	0xbe66f70c	-0.22555178
34	0x3d515580	0.05110693
35	0x3ee8c6a4	0.4546405
36	0xbe1fbf30	-0.15600276
37	0x3d018268	0.031618506
38	0xbd57cb84	-0.052684322
39	0x3cfceb30	0.030873865
40	0xbe9694a3	-0.29410276
41	0x3e3a4f77	0.18194376
42	0xbad2f880	-0.0016095787
43	0xbe07d160	-0.13263464
44	0x3e43eba8	0.19132864
45	0xbf2fd758	-0.68687963
46	0xbf6a7ae6	-0.9159378
47	0xbe972283	-0.29518518
48	0x3d88efac	0.06686339
49	0xbcc80580	-0.024416685
50	0x3eaff5a8	0.34367108
51	0x3e59dcf0	0.21275687
52	0xbb6eac00	-0.0036418438
53	0x3eb90603	0.361374
54	0xbda125a8	-0.078685105
55	0x3da64058	0.08117741
56	0xbdca9948	-0.09892517
57	0xbcfe5473	-0.031046128
58	0xbd2a3bf0	-0.041561067
59	0xbe65e3ca	-0.22450176
60	0xbcffa470	-0.03120634
61	0xbe09f6b7	-0.1347302
62	0xbcee3140	-0.029076219
63	0xbe3a488a	-0.18191734
64	0x3e7cf303	0.24702077
65	0x3e89e2ca	0.2693084
66	0x3db526e4	0.088453084
67	0x3eceadf2	0.40367085
68	0xbcd82a80	-0.026387453
69	0x3ec9f4cc	0.39444578
70	0xbcb70620	-0.022341788
71	0xbe295ab0	-0.16538501
72	0xbf4a1ea7	-0.7895302
73	0xbdc048e8	-0.09388906
74	0xbdcff390	-0.10153878
75	0x3ec0e582	0.376751
76	0xbe183fa0	-0.14868021
77	0x3eac612d	0.3366789
78	0xbe97f300	-0.29677582
79	0xbf04d033	-0.51880187
80	0x3d28e948	0.0412381
81	0xbf4877ee	-0.78308
82	0x3ec37707	0.38176748
83	0x3b862fc0	0.0040950477
84	0x3e1c0fc4	0.15240389
85	0xbec67599	-0.38761595
86	0x3ede4040	0.43408394
87	0x3e2b6be0	0.1674037
88	0xbd470cc0	-0.048596144
89	0x3bd02000	0.006351471
90	0x3bf6cf00	0.0075320005
91	0x3e5005d4	0.20314723
92	0x3e9735f3	0.29533347
93	0xbf0490e6	-0.517836
94	0x3ed61224	0.41810715
95	0x3ecc5ff8	0.39916968
96	0xba1f6a8a	-0.0006081244
97	0x3ca83cf0	0.02053687
98	0x3e86fc2e	0.26364273
99	0x3e9a3722	0.30120188
100	0xbf4a6dcd	-0.7907379
101	0xbe06b39b	-0.13154452
102	0xbf0bde3e	-0.5463599
103	0x3e11b76c	0.14230126
104	0xbb2909cd	-0.0025793195
105	0xbe4bd452	-0.19905213
106	0x3dca2c06	0.09871678
107	0xbd519400	-0.051166534
108	0xbeed8be2	-0.46395785
109	0xba49d380	-0.00076990575
110	0xbccd39c0	-0.025051951
111	0x3eaeaf50	0.34118128
112	0x3f09108e	0.53540885
113	0xbc0de5e0	-0.0086607635
114	0x3c05deb0	0.008170769
115	0xbdfb36ae	-0.12266289
116	0xbe9772ce	-0.29579777
117	0xbe04ac04	-0.12956244
118	0x3e51a1e2	0.2047191
119	0x3e954afe	0.29158777
120	0x3ca94c80	0.02066636
121	0xbf1a84c0	-0.6035881
122	0x3d186e38	0.037214488
123	0xbd8252c6	-0.06363444
124	0x3d762690	0.06009537
125	0x3e0ff674	0.14058858
126	0xbecd1f2b	-0.40062842
127	0xbe1efcd1	-0.1552613

model.fc.weight f4 [1, 128]
0	0xbe9602fc	-0.29299152
1	0x3ea86e93	0.3289686
2	0x3ea727b8	0.3264749
3	0x3e62a104	0.22131735
4	0x3e71b46b	0.2360398
5	0xbeb2eb37	-0.3494508
6	0xbefdb725	-0.4955379
7	0x3e8a7b98	0.2704742
8	0x3e8dddcb	0.27708277
9	0x3ec46b66	0.38363189
10	0xbeb1f993	-0.34760723
11	0x3e97dcaf	0.29660556
12	0xbe96bbae	-0.29440063
13	0x3eab6d55	0.3348185
14	0x3ea496d5	0.32146326
15	0xbea1a67a	-0.31572324
16	0x3ea70b7b	0.32625946
17	0x3ebeb368	0.3724625
18	0xbee30689	-0.44340923
19	0xbe88b4e5	-0.26700512
20	0xba936d26	-0.0011247739
21	0xbea89189	-0.32923535
22	0xbe829320	-0.25502872
23	0xbf0dffb9	-0.55468327
24	0xbec25085	-0.37952057
25	0xbed49f5f	-0.4152784
26	0xbe860588	-0.26176095
27	0x3ebd69e3	0.36994848
28	0xbeaace9b	-0.33360752
29	0x3e81b107	0.25330374
30	0x3eaf536c	0.34243333
31	0xbea9640f	-0.3308415
32	0xbeabc0e5	-0.33545604
33	0xbedcde2e	-0.4313826
34	0x3e9160cc	0.28394163
35	0xbeea0200	-0.4570465
36	0x3f0f868d	0.56064683
37	0x3eaeaf5a	0.34118158
38	0x3e9f4fb6	0.31115502
39	0x3e97b2b0	0.29628515
40	0x3e9b6839	0.30352953
41	0x3ef71057	0.48254654
42	0xbe826e85	-0.25474945
43	0xbf270e3a	-0.65256083
44	0xbeb79e8c	-0.3586315
45	0xbe5485cf	-0.20754169
46	0xbeb91b4f	-0.36153647
47	0xbf7a0c28	-0.976748
48	0x3e8a430d	0.2700428
49	0xbe3dcb86	-0.1853467
50	0xbebfd59a	-0.37467653
51	0xbeab289a	-0.33429414
52	0xbe971130	-0.295053
53	0x3f256878	0.6461253
54	0xbe3f35e3	-0.186729
55	0x3e741eac	0.23839825
56	0xbe5c1516	-0.21492419
57	0x3984574e	0.0002524205
58	0x3e82c559	0.2554119
59	0x3ea0e9a6	0.3142826
60	0x3ed1671a	0.40898973
61	0x3e9f8ae8	0.31160665
62	0x3eb0cf5e	0.3453321
63	0x3eb2a7ae	0.34893554
64	0xbeb35b1d	-0.3503045
65	0xbeec9b69	-0.4621232
66	0xbe6ee10e	-0.23328039
67	0xbecaf2c7	-0.3963835
68	0x3e9e2df3	0.3089443
69	0xbebd905e	-0.37024206
70	0x3e82b496	0.255284
71	0x3e8e4a4c	0.2779106
72	0x3f5bcce6	0.85859525
73	0x3ebcccce	0.36875004
74	0x3e9b6bb3	0.30355605
75	0xbea8446b	-0.328647
76	0x3ebaddbc	0.36497295
77	0xbea83744	-0.32854664
78	0xbf4b8a5f	-0.7950801
79	0xbe90dd75	-0.28293958
80	0x3e8290c3	0.2550107
81	0xbe90ecce	-0.28305668
82	0xbe8cbc6c	-0.27487504
83	0xbe9e00e1	-0.30860046
84	0x3e99bf95	0.30028978
85	0xbf090040	-0.53516006
86	0x3eeff222	0.4686442
87	0x3e91dbbe	0.28487962
88	0x3e1b562d	0.15169592
89	0x3ed2076d	0.4102129
90	0x3e946781	0.28985217
91	0x3e8f2447	0.27957365
92	0x3e9d5546	0.3072912
93	0x3f4e1527	0.80501026
94	0xbee5545a	-0.44790918
95	0x3ea69f3d	0.32543364
96	0x36af9318	5.2325304e-06
97	0x3e9affa0	0.3027315
98	0x3ebe203d	0.3713397
99	0x3e9c4e57	0.3052852
100	0xbfcc2831	-1.5949765
101	0x3e9a7f6e	0.30175346
102	0xbe4f8df4	-0.20268995
103	0x3e6cf539	0.2314042
104	0xb9c1fe20	-0.00037001166
105	0xbeed840a	-0.463898
106	0xbed6e9ba	-0.41975194
107	0x3e8aa423	0.2707835
108	0xbf126c6f	-0.57196707
109	0x38425707	4.6334255e-05
110	0x3f559871	0.8343573
111	0xbec0f852	-0.37689453
112	0xbeb72641	-0.35771373
113	0xbe5936ab	-0.2121226
114	0x3eba55fd	0.3639373
115	0x3e8a3ea9	0.2700093
116	0xbe6d1d78	-0.23155773
117	0xbededc29	-0.43527344
118	0x3ee0383c	0.43792903
119	0xbeb75fcd	-0.35815278
120	0x3e7e3e72	0.24828508
121	0xbfbdb4c7	-1.4820794
122	0x3ee0ca2e	0.4390425
123	0x3e863314	0.26210845
124	0x3ea7ffa3	0.32812223
125	0xbe8aff2b	-0.27147803
126	0xbe5742bc	-0.21021551
127	0x3e8d58cf	0.27606818

model.embedding.weight f4 [227, 64]
0	0x00000000	0.0
1	0x00000000	0.0
2	0x00000000	0.0
3	0x00000000	0.0
4	0x00000000	0.0
5	0x00000000	0.0
6	0x00000000	0.0
7	0x00000000	0.0
8	0x00000000	0.0
9	0x00000000	0.0
10	0x00000000	0.0
11	0x00000000	0.0
12	0x00000000	0.0
13	0x00000000	0.0
14	0x00000000	0.0
15	0x00000000	0.0
16	0x00000000	0.0
17	0x00000000	0.0
18	0x00000000	0.0
19	0x00000000	0.0
20	0x00000000	0.0
21	0x00000000	0.0
22	0x00000000	0.0
23	0x00000000	0.0
24	0x00000000	0.0
25	0x00000000	0.0
26	0x00000000	0.0
27	0x00000000	0.0
28	0x00000000	0.0
29	0x00000000	0.0
30	0x00000000	0.0
31	0x00000000	0.0
32	0x00000000	0.0
33	0x00000000	0.0
34	0x00000000	0.0
35	0x00000000	0.0
36	0x00000000	0.0
37	0x00000000	0.0
38	0x00000000	0.0
39	0x00000000	0.0
40	0x00000000	0.0
41	0x00000000	0.0
42	0x00000000	0.0
43	0x00000000	0.0
44	0x00000000	0.0
45	0x00000000	0.0
46	0x00000000	0.0
47	0x00000000	0.0
48	0x00000000	0.0
49	0x00000000	0.0
50	0x00000000	0.0
51	0x00000000	0.0
52	0x00000000	0.0
53	0x00000000	0.0
54	0x00000000	0.0
55	0x00000000	0.0
56	0x00000000	0.0
57	0x00000000	0.0
58	0x00000000	0.0
59	0x00000000	0.0
60	0x00000000	0.0
61	0x00000000	0.0
62	0x00000000	0.0
63	0x00000000	0.0
64	0x3f052d63	0.5202238
65	0x3e25fcfe	0.1620979
66	0xbeba86b2	-0.3643089
67	0xbe71cee1	-0.23614074
68	0xbef05925	-0.46943012
69	0x3f0c1584	0.5472033
70	0xbf6706dc	-0.9024484
71	0x3d619c9c	0.055080995
72	0xbf3c65d7	-0.73592895
73	0x3dbc925e	0.09207605
74	0xbf59e456	-0.8511404
75	0x3f0270be	0.5095328
76	0x3e50d645	0.20394237
77	0xbf10708d	-0.5642174
78	0x3f0481dc	0.5176065
79	0x3ef26cca	0.47348624
80	0x3f1bdc6e	0.60883224
81	0xbe2d8855	-0.16946538
82	0x3f9c32ae	1.2202966
83	0x3dc7b61c	0.097515315
84	0xbc4836c5	-0.012220089
85	0xbe17edef	-0.14836858
86	0x3e28a6c5	0.16469868
87	0x3f469779	0.7757488
88	0x3f27d484	0.6555865
89	0x3f5ec254	0.8701527
90	0xbfcac504	-1.5841374
91	0xbe05173e	-0.12997147
92	0x3f3c004f	0.7343797
93	0x3c2d74d7	0.010586939
94	0xbf4b0847	-0.79309505
95	0x3f75451a	0.95808566
96	0x3e69f068	0.22845614
97	0x3f19ecf2	0.60127175
98	0x3f261705	0.64878875
99	0xbfac2aca	-1.3450558
100	0x3e6bcda1	0.2302766
101	0x3d133bd4	0.03594573
102	0x3d5575b3	0.0521142
103	0x3f811937	1.008582
104	0xbd869c33	-0.065727614
105	0xbda6a995	-0.08137814
106	0xbfa1a8b4	-1.2629609
107	0xbf962327	-1.1729478
108	0xbf337ec1	-0.70115286
109	0x3edf0652	0.4355951
110	0x3e51377c	0.20431322
111	0x3c8a4601	0.016879084
112	0x3cd5d39c	0.02610188
113	0xbf1066b1	-0.56406695
114	0xbea088ea	-0.31354457
115	0x3cb70c73	0.022344803
116	0xbee93980	-0.45551682
117	0x3e1d36ac	0.15352887
118	0xbce07d50	-0.027403504
119	0xbf49a0d6	-0.7876104
120	0xbece2a34	-0.40266573
121	0xbef61944	-0.4806615
122	0xbe0b7884	-0.13620192
123	0xbebb4592	-0.36576515
124	0x3ea899f8	0.3292997
125	0xbf5c7804	-0.8612063
126	0xbe4520c3	-0.19250779
127	0x3f5666e7	0.83750767
128	0x3a28b7d6	0.0006436085
129	0x3890c629	6.903365e-05
130	0xb96bf8c1	-0.00022504014
131	0xba1fd57f	-0.0006097182
132	0xb9dd0ea7	-0.00042163322
133	0x391735a2	0.00014420462
134	0x3a2ba251	0.00065473194
135	0x3a917c2d	0.0011099629
136	0x38c17ab3	9.225812e-05
137	0xb910c803	-0.0001380742
138	0x3962d0e6	0.0002163086
139	0xbadbe588	-0.001677678
140	0x3a22d65d	0.0006211752
141	0x38538c00	5.0436705e-05
142	0x398556d3	0.00025432426
143	0xba2d37f0	-0.00066077616
144	0xb9984107	-0.00029040148
145	0x39df3a9a	0.00042577536
146	0xba969311	-0.0011487921
147	0x39dfd3a5	0.00042691562
148	0x38f587a3	0.00011707775
149	0x3a2b9c2e	0.0006546405
150	0x380037c8	3.056953e-05
151	0x3a777d10	0.0009440938
152	0xb8fd1e69	-0.000120696444
153	0xba35a9f7	-0.0006929929
154	0x3a3f904a	0.00073075725
155	0xb90597ef	-0.00012740468
156	0x39a17462	0.00030795025
157	0x3a88ea34	0.0010445775
158	0xb9024e6b	-0.00012426979
159	0x38f65114	0.00011745296
160	0x3a80e74a	0.0009834555
161	0x39798bc5	0.00023798559
162	0x3ac87209	0.0015292774
163	0xb6f1000f	-7.1823665e-06
164	0x399c8606	0.00029854494
165	0x397d6e6d	0.00024169097
166	0x399b70b7	0.00029647883
167	0xb9becb95	-0.00036391304
168	0x3a23bc59	0.00062460225
169	0xb988eb87	-0.00026115423
170	0xba9940ce	-0.0011692287
171	0x398517ac	0.00025385374
172	0x3a0710fd	0.0005152373
173	0x39a99033	0.0003234163
174	0x39d39843	0.000403585
175	0x3abdfe96	0.0014495428
176	0x3a1805e3	0.0005799217
177	0xbab1fa68	-0.0013578655
178	0xb98f5368	-0.00027337228
179	0x38f69af7	0.000117590585
180	0x39426aed	0.00018541115
181	0x38b80eab	8.776536e-05
182	0xb9f2e6e2	-0.00046329858
183	0x38da02a3	0.00010395541
184	0x397c9617	0.00024088506
185	0xb98d7f78	-0.00026988587
186	0x3a92fa9a	0.0011213601
187	0xb992d482	-0.0002800562
188	0x39b9568c	0.00035350432
189	0xb9d6309c	-0.00040853478
190	0x3a3a4b27	0.00071065355
191	0x3901366f	0.00012322677
192	0xb914fd64	-0.00014208775
193	0xba23a073	-0.00062418653
194	0x3ad01a80	0.0015877038
195	0x39e76a2c	0.00044138858
196	0x396fc85d	0.00022867457
197	0xb9e7b1cd	-0.00044192225
198	0x3a047ddf	0.00050541566
199	0xb98d129b	-0.00026907478
200	0xbaad7f1a	-0.0013236732
201	0x3a6ca4b1	0.00090272265
202	0xba2bc1d9	-0.0006552018
203	0x393517ab	0.00017270322
204	0x38bb1c56	8.922133e-05
205	0xb7360472	-1.084908e-05
206	0xb86f7c6d	-5.709792e-05
207	0xba2373f6	-0.0006235236
208	0x39ab04e1	0.00032619297
209	0xb927b881	-0.00015995094
210	0xba0aa6d7	-0.00052891433
211	0xb989c30e	-0.00026276003
212	0x39e2b3ac	0.00043239945
213	0x3997e7bb	0.00028973617
214	0xb99a0a12	-0.00029380672
215	0x381e9e38	3.781749e-05
216	0xba9c193d	-0.0011909377
217	0xb9a30614	-0.0003109431
218	0x3a203848	0.0006111902
219	0x3a6b8905	0.0008984956
220	0xbaf3e318	-0.0018607108
221	0x3a3ce43c	0.00072056404
222	0x3a80005f	0.0009765736
223	0x3a160166	0.0005722254
224	0xba357185	-0.0006921518
225	0x39a26e84	0.00030981388
226	0x39e10cd9	0.00042924916
227	0x3a8f52a0	0.0010934658
228	0x3a54cb33	0.0008117437
229	0x38d3e956	0.00010104726
230	0xb9a8c580	-0.00032190606
231	0xba0f7f34	-0.0005473972
232	0xba966f5d	-0.0011477281
233	0xba5c758b	-0.0008409849
234	0x3a238b33	0.0006238699
235	0xba6984fe	-0.0008908062
236	0x3a41b2dc	0.0007389018
237	0x398dff7a	0.0002708396
238	0xba04da25	-0.00050679065
239	0x399d955f	0.00030056664
240	0xba379af8	-0.0007003988
241	0x39dcb996	0.00042099942
242	0xbabd488e	-0.0014441179
243	0x379748b7	1.8034463e-05
244	0xb8b6c702	-8.7155044e-05
245	0xb9e58f1a	-0.00043784903
246	0x39d7de05	0.00041173413
247	0x3a93c06b	0.0011272555
248	0xba9e09ed	-0.0012057401
249	0xba61d72d	-0.00086151325
250	0xbab48e64	-0.0013775346
251	0x39f63838	0.00046962663
252	0xba735a4a	-0.00092831685
253	0x3b10e953	0.0022111728
254	0x38c4588c	9.3625014e-05
255	0xba0218cd	-0.0004962802

model.conv1.weight f4 [128, 64, 3]
0	0x3d8d2de5	0.06893519
1	0xbd71a809	-0.05899814
2	0x3da55874	0.08073512
3	0x3badf794	0.0053090546
4	0xbdaa3680	-0.08311176
5	0x3cecdf1d	0.028914982
6	0x3b0cd2e2	0.0021488
7	0x3caa31ef	0.020775763
8	0x3d32f73f	0.043692823
9	0x3dbf123e	0.09329651
10	0xbc871b38	-0.016492471
11	0x3c8e5a6b	0.017377099
12	0xbd8453a8	-0.06461269
13	0x3d92e4a4	0.07172516
14	0xbbfefca1	-0.0077815806
15	0x3e181d72	0.14854982
16	0xbc247a69	-0.0100389505
17	0x3d8c4cb4	0.068505675
18	0xbd834abf	-0.06410741
19	0x3d66746a	0.056263365
20	0xbd19204a	-0.03738431
21	0x3dc7d126	0.09756689
22	0x3da266c5	0.07929758
23	0xbc5d972d	-0.013524813
24	0x3cc3c326	0.023896765
25	0xbdc5da3b	-0.09660765
26	0x3d202f99	0.039107893
27	0xbd66e186	-0.05636742
28	0xbdcfe637	-0.10151332
29	0x3cfbf0c4	0.030754454
30	0x3bb2eee7	0.0054606083
31	0x3d7d58f2	0.061852403
32	0xbd529a34	-0.05141659
33	0xbd665cbb	-0.05624078
34	0x3d822b08	0.06355864
35	0x3c3c7a2b	0.0115037365
36	0x3dd83aea	0.10558112
37	0xbd8f4d17	-0.069971256
38	0x3cbd7672	0.023127768
39	0x3bfc14d0	0.0076929107
40	0x3d835383	0.06412413
41	0xbd8f1d82	-0.0698805
42	0x3cbbea95	0.022939006
43	0xbd05cb0f	-0.032664355
44	0xbd2cd794	-0.04219778
45	0xbc834d00	-0.016027927
46	0xbcb912c3	-0.022591954
47	0xbcee38b3	-0.02907977
48	0xbae1eab9	-0.001723609
49	0x3cb7c9cc	0.022435091
50	0xbe1e79c4	-0.15476137
51	0xbd8879f9	-0.066638894
52	0x3cbb5f84	0.022872694
53	0x3e06bdba	0.13158312
54	0xbd5d2c23	-0.05399717
55	0x3d2c4034	0.042053416
56	0xbe110fd1	-0.1416619
57	0xbc20ab8f	-0.009806528
58	0x3bfaeab6	0.0076573743
59	0xbd8becd8	-0.06832284
60	0x3d9d3f1d	0.076780535
61	0xbd7f8e9c	-0.062391862
62	0x3c775516	0.01509597
63	0xbda81729	-0.082075424
64	0xbda16873	-0.0788125
65	0x3dc60391	0.09668649
66	0x3c794d5c	0.015216198
67	0xbdd1eb1b	-0.10249921
68	0xbdb0f079	-0.086396165
69	0xbc2aed05	-0.010432486
70	0x3c45fb37	0.01208382
71	0x3ce1c177	0.027558072
72	0xbddea370	-0.10871017
73	0xbdf4a37b	-0.11945244
74	0xbde18bcd	-0.11012993
75	0xbd806a15	-0.062702335
76	0x3c76dea8	0.015067734
77	0xbd4e3717	-0.050345507
78	0x3d9952c7	0.07486492
79	0xbe1e7411	-0.15473963
80	0x3d83814a	0.06421144
81	0x3d5a86ec	0.053351328
82	0x3bcb1919	0.0061980602
83	0xbda6692c	-0.08125529
84	0x3c8d910f	0.017281083
85	0xbdf95c37	-0.12175792
86	0xbc0b3521	-0.008496554
87	0xbd01a781	-0.031653885
88	0x3e0a9d79	0.13536634
89	0x3d88b9e3	0.0667608
90	0x3e39e42c	0.18153447
91	0xbde8196a	-0.11332972
92	0x3c8fc4cc	0.017549895
93	0x3e25476e	0.1614053
94	0x3d08e19d	0.033418287
95	0x3d4496d5	0.047995407
96	0x3da31227	0.07962447
97	0xbb9ddd86	-0.0048176674
98	0x3e228470	0.15870833
99	0x3de0bcfd	0.10973547
100	0xbd0a3b1a	-0.03374777
101	0x3e258b40	0.16166401
102	0x3c392158	0.011299454
103	0xbdcc04c0	-0.099618435
104	0xbdd04f88	-0.101714194
105	0xbdea0f12	-0.11428656
106	0xbe43ceda	-0.19121876
107	0xbbdd86b7	-0.006760444
108	0xbd36e509	-0.04465202
109	0xbe246dc8	-0.16057503
110	0xbd5767ed	-0.052589346
111	0x3d4c693d	0.04990505
112	0xbd4c1a88	-0.04982999
113	0xbd4bbc24	-0.04973997
114	0xbc712780	-0.01471889
115	0xbddd1a34	-0.107960135
116	0xbc58f6a3	-0.0132423965
117	0x3dfc33c7	0.12314563
118	0xbdc327ca	-0.095290735
119	0x3d39bc88	0.045345813
120	0xbc39bf88	-0.0113371685
121	0x3d56cae8	0.0524396
122	0x3be57b89	0.007003252
123	0x3dd62ef0	0.10458171
124	0x3df28b92	0.11843027
125	0xbcdfabbb	-0.027303567
126	0xbd97e7e1	-0.07417274
127	0x3d072faa	0.03300444
128	0xbd94d9c6	-0.072680995
129	0xbe200dfa	-0.15630332
130	0xbc932de8	-0.017966226
131	0xbd9054a9	-0.07047398
132	0xbc78a85f	-0.015176862
133	0x3db00a72	0.08595742
134	0xbc68ad95	-0.014201541
135	0x3e0b517e	0.13605306
136	0xbe34a116	-0.17639574
137	0xbc923944	-0.017849572
138	0xbc46f920	-0.012144357
139	0x3d0d876d	0.03455298
140	0x3de5f2ae	0.11227928
141	0xbde15587	-0.11002641
142	0xbd08f4fd	-0.033436764
143	0xbdc7fab2	-0.09764613
144	0x3c0536e2	0.008130761
145	0xbc60b98a	-0.013716111
146	0x3c5cc7a1	0.01347533
147	0xbc926630	-0.017870992
148	0xbde4798a	-0.11155994
149	0x3cf1f91f	0.029537736
150	0xbdfc4556	-0.12317912
151	0x3d0922c5	0.033480424
152	0xbd9ab91e	-0.075548396
153	0x3ce00403	0.027345663
154	0x3ccd1abd	0.025037164
155	0xbd5cc521	-0.053898934
156	0xbc5ec802	-0.01359749
157	0xbd91236d	-0.07086835
158	0x3d008c2f	0.03138369
159	0xbd1cf7ed	-0.038322378
160	0x3d1f52f2	0.038897462
161	0xbca33447	-0.019922389
162	0xbe018316	-0.12647662
163	0x3ce81b62	0.02833337
164	0x3d7607bb	0.060065966
165	0xbcc41a21	-0.02393824
166	0xbdd0a4f3	-0.101877116
167	0xbd232ea4	-0.0398394
168	0x3e266b9a	0.16251984
169	0xbda03ee9	-0.07824499
170	0x3d0d63ab	0.03451888
171	0x3e071bcd	0.13194199
172	0x3d67bd21	0.05657685
173	0xbd70e4f9	-0.058812115
174	0x3d9873e4	0.074439794
175	0xbc48a941	-0.0122473845
176	0xbdb583ad	-0.08863006
177	0x3de2fa75	0.11082927
178	0x3e1f3521	0.15547611
179	0x3cd44aac	0.025914513
180	0xbd93b70c	-0.07212648
181	0x3e088219	0.13330878
182	0xbdcd40d7	-0.10022133
183	0x3cf29281	0.029610874
184	0xbc6c6a12	-0.014429586
185	0x3e11dff5	0.14245589
186	0x3d20a4f4	0.03921981
187	0x3e16d11b	0.14728205
188	0xbd1eb87d	-0.03875016
189	0x3e016cb1	0.12639119
190	0xbd9b43c6	-0.07581286
191	0x3c74b71a	0.014936233
192	0x3d1145f3	0.0354671
193	0x3d17548e	0.036945872
194	0xbd1e6319	-0.038668726
195	0x3da08f68	0.078398526
196	0x3ac4757f	0.001498863
197	0x3c9a558e	0.018839624
198	0xbc8396ac	-0.016063057
199	0x3d43cfa1	0.047805432
200	0x3d1c540a	0.038166083
201	0x3c038f16	0.00802972
202	0xbd984db3	-0.07436695
203	0x3dfaecfc	0.122522324
204	0x3d5a375a	0.053275444
205	0x3d94e582	0.07270338
206	0xbbcfcdee	-0.0063416874
207	0xbd124461	-0.035709742
208	0x3ccab101	0.024742605
209	0x3d8ed529	0.06974251
210	0xbd2cb85c	-0.042168006
211	0xbda23c5a	-0.079216674
212	0xbd64ac22	-0.05582822
213	0x3ccad995	0.024761954
214	0x3c1907c3	0.009340229
215	0x3d77155c	0.060323104
216	0xbd6d9419	-0.058002565
217	0x3beb107d	0.0071735964
218	0x3d1f389b	0.038872343
219	0xb9b93d0b	-0.0003533143
220	0xbdb899dc	-0.09013721
221	0x3d319a2b	0.043359917
222	0xbc0faa19	-0.008768582
223	0xbce512d0	-0.027963072
224	0x3d20b36d	0.039233614
225	0x3d90d4a1	0.07071806
226	0x3d66952a	0.056294598
227	0x3cf82b87	0.030294193
228	0x3daaa2c7	0.083318286
229	0xbdde437a	-0.10852714
230	0x3d485823	0.04891218
231	0x3d999678	0.07499403
232	0xbc9cae5d	-0.019126112
233	0x3d6fc2df	0.058535453
234	0x3d665c6a	0.056240477
235	0x3c397f80	0.011321902
236	0xbd5aeb30	-0.05344695
237	0x3c882a6b	0.016621789
238	0x3db6a1f7	0.08917611
239	0x3c687be3	0.014189693
240	0x3c693d5b	0.01423582
241	0xbd89f1ac	-0.067355484
242	0x3cbdd591	0.023173125
243	0xbbe403a0	-0.00695844
244	0x3da676ca	0.08128126
245	0x3d4db529	0.050221596
246	0xbc209699	-0.00980153
247	0xbd62311d	-0.05522262
248	0xbd5c27f1	-0.05374903
249	0xbcaff918	-0.021481082
250	0xbe077f45	-0.13232143
251	0x3d1cdc80	0.038296223
252	0x3d18c12c	0.037293598
253	0xbc7c0fb5	-0.015384604
254	0x3c03e73d	0.008050737
255	0xbc928877	-0.017887337

model.conv2.weight f4 [128, 128, 3]
0	0x3d22f151	0.03978092
1	0x3cbe3e42	0.023223046
2	0x3d1e26db	0.038611274
3	0xbd0e3e3b	-0.034727316
4	0xbddc9ef1	-0.10772503
5	0x3d0c0625	0.034185547
6	0x3be2c29a	0.006920171
7	0xbd014816	-0.031562887
8	0x3d63f79a	0.055656053
9	0xbd9e615f	-0.07733416
10	0xbde9de4e	-0.114193544
11	0xbd012416	-0.031528555
12	0x3c29e6de	0.010369984
13	0xbd3e5b3e	-0.046473734
14	0x3d2370dd	0.039902557
15	0xbdb4eb2e	-0.088339195
16	0xbd5767bc	-0.052589163
17	0x3d360693	0.044439863
18	0xbda41a3c	-0.08012816
19	0x3c89466d	0.016757214
20	0x3df2f9e4	0.11864069
21	0x3ca34f9b	0.01993542
22	0xbc153660	-0.009107202
23	0x3d40147b	0.04689453
24	0xbddf5071	-0.10904015
25	0xbcf875b6	-0.030329566
26	0x3c1644ee	0.009171708
27	0xbdcf1a46	-0.10112433
28	0xbcd76d6d	-0.026297295
29	0x3d00d755	0.031455357
30	0xbb9cec37	-0.004788901
31	0xbdbe3240	-0.09286928
32	0x3c98553c	0.01859533
33	0x3ce6cb8f	0.028173236
34	0x3d7b114d	0.061295796
35	0x3d92ed46	0.071741626
36	0xbcf27e8e	-0.029601362
37	0xbd9554c2	-0.07291557
38	0x3cc4e6f4	0.024035908
39	0xbbcab497	-0.006186079
40	0x3d2d138a	0.042254962
41	0x3c653875	0.013990511
42	0xbd5cad98	-0.05387649
43	0xbdb64ce5	-0.08901385
44	0xbccf38ba	-0.025295604
45	0xbd8fe677	-0.070263796
46	0xbd810db8	-0.06301445
47	0xbb209021	-0.002449997
48	0x3b0b9cdb	0.002130321
49	0xbddff417	-0.10935228
50	0xbc577c4c	-0.013152193
51	0x3d983e6c	0.07433781
52	0xbd38f185	-0.045152206
53	0x3cf8fbe5	0.03039355
54	0x3c9dd562	0.019266788
55	0x3d047a54	0.032343224
56	0xbcce6248	-0.025193349
57	0x3bfa1ecd	0.0076330663
58	0xbd4925cf	-0.049108323
59	0x3c05abdc	0.00815865
60	0x3b237e43	0.0024947084
61	0xbcb9ea48	-0.022694722
62	0xbd40d92b	-0.047082108
63	0xbdb5b970	-0.0887326
64	0xbd42ee94	-0.047590807
65	0x3cf1d6de	0.029521402
66	0xbbd43e0f	-0.0064771245
67	0xbad313e4	-0.001610395
68	0x3c60ba1d	0.013716248
69	0x3c139b61	0.009009213
70	0xbd0a9d31	-0.033841316
71	0x3d03124d	0.031999875
72	0xbd2f6a0a	-0.042825736
73	0xbd173668	-0.03691712
74	0xbd2987e1	-0.04138935
75	0x3d288d91	0.041150633
76	0xbca13f4a	-0.019683499
77	0x3c30b8e9	0.0107862735
78	0x3d0cb896	0.034355722
79	0xbdcc6510	-0.09980214
80	0xbcc34060	-0.023834407
81	0x3d296506	0.04135611
82	0x3d5bec68	0.05369225
83	0xbd25f6be	-0.040518515
84	0xbd45db7e	-0.048305027
85	0xbc4b2872	-0.01239978
86	0xbd683c93	-0.056698393
87	0x3a42060a	0.00074014126
88	0x3b8d5563	0.0043131574
89	0x3c9e970b	0.019359132
90	0x3cbd6760	0.023120582
91	0x3d16ce2c	0.036817715
92	0xbcaf1f98	-0.02137737
93	0x3ab482f0	0.0013771933
94	0xbcc76f9c	-0.024345212
95	0x3c4babc5	0.01243109
96	0xbd513ac8	-0.05108145
97	0x3d2edbc5	0.042690057
98	0x3c5f7610	0.013638988
99	0xbd0f0a83	-0.034922134
100	0xbc993eb2	-0.018706653
101	0x3d1e941f	0.038715478
102	0xbdc290df	-0.09500288
103	0xbc88103e	-0.016609307
104	0xbc16f081	-0.009212614
105	0xbc20a08d	-0.009803903
106	0x392bcd2c	0.00016384263
107	0x3d21216c	0.039338514
108	0xbd2b0951	-0.04175693
109	0x3c11e785	0.008905296
110	0xbc8bf0ad	-0.017082537
111	0x3ca99f35	0.020705799
112	0xbcbbbb9a	-0.022916604
113	0xbd05c349	-0.03265694
114	0x3db34da7	0.087550454
115	0xbe188bc3	-0.14897065
116	0xbd814c62	-0.06313397
117	0xbd56c544	-0.05243422
118	0x3d5679b5	0.052362163
119	0xbafb76a9	-0.0019185144
120	0x3ceb6dbc	0.028738849
121	0x3cb10720	0.021609843
122	0x3da6a122	0.081362024
123	0xbda796ed	-0.08183084
124	0xb9c66df4	-0.00037847424
125	0xbd702152	-0.058625527
126	0xbd58e7ae	-0.052955322
127	0x3d4d320a	0.05009655
128	0x3cf19ada	0.029492784
129	0xbd4c4a63	-0.04987563
130	0xbd0bfc8c	-0.034176394
131	0xbc2668c6	-0.010156816
132	0xbc1bec6b	-0.009516816
133	0xbc85ed1b	-0.016348412
134	0xbd3f3fd0	-0.046691716
135	0x3c5f17cb	0.0136165125
136	0x3c89425e	0.01675528
137	0x3dd61cbf	0.10454702
138	0x3cddceb3	0.0270761
139	0xbe03af1a	-0.12859765
140	0xbe046a53	-0.12931184
141	0xbd21a7bf	-0.039466616
142	0x3d0d756d	0.034535814
143	0x3c2c1bc1	0.010504664
144	0x3d6ef74a	0.058341302
145	0xbce06649	-0.027392523
146	0x3c2350c3	0.009967986
147	0xbceaa540	-0.02864325
148	0x3d808d42	0.06276943
149	0x3d97526b	0.07388767
150	0x3cc3d02d	0.023902977
151	0x3bf5e335	0.007503892
152	0xbd011b8f	-0.031520423
153	0x3c76bb39	0.015059286
154	0xbcb3658c	-0.021899007
155	0xbcf31265	-0.029671857
156	0xbd3b4fdb	-0.045730453
157	0x3cf4a5d6	0.029864233
158	0x3d970ce8	0.073755085
159	0xbcca0dd3	-0.024664795
160	0xbd4f50b1	-0.050614063
161	0x3d294744	0.04132773
162	0x3db95a00	0.09050369
163	0xb9c7299e	-0.00037987245
164	0x3d53c33b	0.05169986
165	0x3da88af9	0.08229632
166	0xbe00a702	-0.12563708
167	0xbcb0e3e6	-0.021593045
168	0xbb54af1d	-0.0032453008
169	0x3d8a17b3	0.067428015
170	0xbce87e23	-0.02838046
171	0x38218c13	3.8515846e-05
172	0x3ba7f1f5	0.005125279
173	0x3cd4ee86	0.025992643
174	0xbdc663a6	-0.09686975
175	0xbd041dfb	-0.032255154
176	0xb99ebe60	-0.0003027795
177	0xbbc4f70e	-0.0060108965
178	0xbd1512a9	-0.03639475
179	0xbba27d25	-0.004958766
180	0x3cc97218	0.024590537
181	0xbb652438	-0.0034964215
182	0xbc0f9b9d	-0.008765128
183	0x3d86c884	0.06581214
184	0xbd08e658	-0.033422798
185	0xbd58cb31	-0.052928153
186	0x3d190065	0.037353892
187	0xbc55a6a1	-0.013040216
188	0x3c2f0ab6	0.010683706
189	0x3dcbc791	0.09950174
190	0xbd66078d	-0.056159545
191	0x3b030e95	0.0019997705
192	0xbc2908a0	-0.010316998
193	0xbd1ff26d	-0.039049555
194	0x3d4908db	0.04908071
195	0xbd40ca46	-0.047067903
196	0x3c30f9ce	0.010801746
197	0x3b5dd9f9	0.0033851846
198	0xbd69b686	-0.057058834
199	0x3b55a522	0.0032599648
200	0xbafe1f55	-0.0019388
201	0xbd875326	-0.06607656
202	0x3d0dd69d	0.0346285
203	0xbce69707	-0.028148187
204	0xbdfcb10f	-0.12338459
205	0xbbd76927	-0.0065738144
206	0xbd64abba	-0.055827834
207	0x3c943a1e	0.018094119
208	0xbd04299c	-0.032266244
209	0x3d2860ec	0.041108057
210	0x3cfb5b28	0.030683115
211	0xbcbd17c1	-0.023082616
212	0x3daea378	0.08527273
213	0xbd6b301c	-0.057418928
214	0x3c463a55	0.012098868
215	0x3d18d067	0.037308123
216	0xbd05a308	-0.03262618
217	0x3d7420f9	0.059601758
218	0x3cbd6575	0.023119668
219	0x3d12b3dc	0.03581606
220	0x3d2929f0	0.04129976
221	0xbd05b558	-0.032643646
222	0xbd66561f	-0.056234475
223	0xbd1305ea	-0.035894312
224	0x3ce8c8e3	0.028416103
225	0xbd5e5304	-0.05427839
226	0x3cd5f382	0.02611709
227	0xbcc16b7b	-0.023610821
228	0xbd379426	-0.04481902
229	0x3d9bbae8	0.07604009
230	0x3bd65edf	0.0065420712
231	0xbd2e2952	-0.042519875
232	0xbab26f47	-0.0013613485
233	0x3d00951b	0.031392198
234	0xbb93fdd4	-0.0045163427
235	0xbd80f297	-0.0629627
236	0xbd4798b1	-0.048729602
237	0xbe18cfc1	-0.14923002
238	0x3c9972f2	0.018731568
239	0xbb577262	-0.0032874574
240	0xbd318ee4	-0.04334916
241	0xbc91018f	-0.017700939
242	0x3d178c0f	0.036998805
243	0xbd65a8c6	-0.056069158
244	0x3c450db6	0.012027195
245	0x3ceaaf22	0.028647963
246	0x3d747fc0	0.059692144
247	0x3d6f101a	0.058364965
248	0x3d06d410	0.032917082
249	0xbd0f5600	-0.034994125
250	0xbced043e	-0.028932687
251	0xbd4ad7ec	-0.049522325
252	0xbc38a518	-0.01126983
253	0xbc8e2d82	-0.017355684
254	0x3b5a1a12	0.00332797
255	0xbdda4e65	-0.10659484
